checkpoint_actor.pth (torch_old, 541501 bytes, 6 tensors)

fc1.weight f4 [400, 33]
00000000: f690 863d 4b9b 053e 3426 c6bc d1d4 bcbc
00000010: b102 d4bc eb00 8abc b9f7 95bc d6a5 cc3d
00000020: 62a9 203d 1c3d fdbd 260e 0e3d a77b a63d
00000030: 7616 29bc b842 4c3d 29fb 91bc 08cd 0ebd
00000040: 2317 f33c 08bd d23c 3147 fb3c 10f3 a8bc
00000050: 1970 92bc fc29 10bd 9efc 243d 31ac c53d
00000060: ecc5 22bd 04e8 873c ea20 08bc f26f 60bc
00000070: 076d 40be c3d1 abbc 5693 3bbd d789 f0bc
00000080: c302 2cbf 314f f1bd a4d5 863b e3f2 ffbc
00000090: 6a74 5c3b 37dc 8fbd d072 403d 27e9 73bd
000000a0: 1a24 453d d09a f7bd d2dc 96bd 66ef 94bd
000000b0: 2ee5 5c3c 227c c0bc 191a 893d 86a4 173d
000000c0: 023d 87bd 059b 033d a2bc dd3c ddf5 a83d
000000d0: 9520 4f3d 8582 5abd 5713 443c bcc1 6fbd
000000e0: 2548 1d3b 96c9 e13c 3d61 d63c 8231 89bd
000000f0: 066b 19bd ab82 653c 3560 3bbd 44d9 6b3d
00000100: 4e2a 10bd 4ad1 de3d 936d 2d3e bb80 c4bc
00000110: ad0c 26be 1298 193b 0e6a 073d f49a 12bb
00000120: c057 16bd 6041 63bd 40d4 b93d b954 b639
00000130: 7a91 c23b 64a2 20bd ce69 8dbd cceb c0bc
00000140: 0330 1bbc 63b2 c03d 88a0 9f3c 4109 f0bc
00000150: 4a61 dc3c adf2 c43b 0675 6b3e a637 3d3b
00000160: 2295 04bc 5820 5abd 5e03 00be ccdd 673d
00000170: 5ce2 833c 39c9 1f3d ab81 58bc c3f1 c9bc
00000180: 4c71 f23b 49b0 053d 0d5b d23d a76f 2f3d
00000190: ae84 b8ba 56eb 9a3b f73a a0bd 3045 163d
000001a0: 0845 61bd 6455 97bd cd17 80bd c0d9 913c
000001b0: 064f e73d 1953 62bc 7189 85bc c554 9d3c
000001c0: 805d d73b c548 363c 1a48 50bd 9549 f8bc
000001d0: 6d0e 64bd 2ac3 22bc 4e56 15bd db87 a5bc
000001e0: 51b7 9c3d 95e6 64bb 76ed b83d 5764 a6b9
000001f0: ab57 a63d 240d 213d 94ca 89bc ad0c 893d
00000200: d410 143c e5f9 69bc a757 293d 2987 05bf
00000210: 31ec 36bd 2621 9fbd b85a bb3c 0c17 ac3c
00000220: c6f1 113d 22d9 e23c 70d6 5d3c 330f 99bc
00000230: c037 b53d 4d90 9e3c acb7 26bc 9da6 87bc
00000240: 9910 223e a745 a93d 4098 973d 4aed 00bd
00000250: ff39 7cbc 80d5 8d3c 44f7 153d ff12 9a3c
00000260: 9e26 a0bd 15a9 5c3e 06cb 2d3b f743 493d
00000270: 5f40 373c f051 103d 5be5 993c 172c 963c
00000280: 8a70 9abc c371 a0bc 479d 803d b276 c83c
00000290: 700c edbe 6706 483d 99c1 03bd 50cf d13c
000002a0: f869 94bd e1f2 6cbd 7d50 403c 5dfa 833b
000002b0: c7f9 3e3e 058d d13d 8410 d93d 952e 70bd
000002c0: 05f7 4dbc 2a1c 32bd 3613 853d 12c1 c33d
000002d0: e129 12bd 7816 d0bc 9b8f 2f3c ee9c e5bc
000002e0: aade a73c a77e 3f3d baa9 083d 05e6 d7bc
000002f0: e82f fabd d850 fc3c 8775 d7bc e6ff 1e3e
00000300: 05f5 2e3c ae6a 133d 23ca 243d 9c8f 8f3d
00000310: fd16 f9bc 957c 40be c269 c33c b02d 433c
00000320: 9f42 833d 5d58 b03c 2433 d43b 94ec da3c
00000330: 72da b43b e5f1 e03c 84e6 19bd 62bc 42bb
00000340: fba9 d0bd af7f dabd 1249 11bd 524f d6bd
00000350: 4b85 70bc 6ec9 ae3c 7667 88bc 8305 75bb
00000360: 70ae 473b 6b93 8f3c 81a0 643d e016 193c
00000370: a0a7 a73b 91a1 363d 2381 bf3c cbbf 0e3d
00000380: 1e71 1dbd 3d4b 123d 4f47 b3bc f3e5 1d3d
00000390: c6d6 ef3c 74a5 743c 4f2a 8ebc 4a42 b43c
000003a0: 9359 e43d 5d8d 3fbd 34ec 4ebd 2fe6 b23d
000003b0: 95f3 53bc e5ea 8dbd fdd9 4b3d 069b 79bd
000003c0: a29b e7bd 3a00 14bc 471e 8e3d 46a0 453c
000003d0: 38d4 08be 9d55 bfbd c713 c63d 670e 3dbc
000003e0: eecc 2c3a da3b 7cbc 8e58 353d 79ce 11bd
000003f0: 8c41 9fbc 4ee4 abbd bb9f b1bd c01b 73bc
0.06570618 0.13047521 -0.024188139 -0.023050698 -0.02588019 -0.01684614 -0.0183066 0.09992568
0.039224036 -0.12365171 0.03468146 0.081290536 -0.0103202965 0.049868315 -0.017819958 -0.0348635
0.029674118 0.025724903 0.030673595 -0.020623714 -0.017875718 -0.03519629 0.040279977 0.096519835
-0.039739534 0.016590126 -0.008308629 -0.013698565 -0.1879159 -0.020974046 -0.045794807 -0.029362602
-0.67191714 -0.11782683 0.0041148234 -0.031243747 0.0033638724 -0.070244245 0.046984494 -0.059548523
0.048130132 -0.12090075 -0.07366337 -0.07272224 0.013482375 -0.023496691 0.06694431 0.037022136
-0.06603433 0.03213026 0.027067486 0.0825002 0.050568182 -0.05334713 0.011967502 -0.05853437
0.00239993 0.027561944 0.026169414 -0.06698896 -0.03745558 0.014008204 -0.045746047 0.057580248
-0.035196595 0.108797625 0.1693633 -0.023987165 -0.16215773 0.0023436588 0.033060126 -0.0022370191
-0.03670478 -0.05548227 0.090736866 0.00034776868 0.0059377523 -0.039217368 -0.06904946 -0.023549937
-0.009471896 0.094090246 0.019485727 -0.029301288 0.02690186 0.0060103745 0.2299386 0.002887228
-0.008092197 -0.0532535 -0.12501284 0.056608006 0.016099147 0.03901026 -0.013214509 -0.024651414
0.00739876 0.03263882 0.10271273 0.04283109 -0.0014077628 0.0047277613 -0.07823747 0.036687076
-0.054997474 -0.07389334 -0.0625454 0.017804027 0.112943694 -0.013813757 -0.016300889 0.01920546
0.0065724254 0.011125748 -0.05085001 -0.030308524 -0.05567782 -0.009934226 -0.03645926 -0.020206382
0.07652152 -0.0034927477 0.09029667 -0.00031736746 0.0812219 0.039319173 -0.01682023 0.06691871
0.009037215 -0.014280771 0.041343357 -0.52159363 -0.044658843 -0.077699944 0.022870407 0.021007083
0.035630964 0.027691428 0.013539895 -0.018684005 0.08848524 0.019355917 -0.010175627 -0.01655894
0.15826644 0.08265238 0.07402086 -0.031476296 -0.015394687 0.017313719 0.036612764 0.018807886
-0.07819866 0.21548875 0.0026518716 0.049137082 0.011184781 0.03523439 0.018786123 0.01833157
-0.018852491 -0.019585496 0.06279998 0.02447066 -0.46298552 0.04883423 -0.03216705 0.02561155
-0.072467744 -0.057848815 0.01173794 0.0040276484 0.1864997 0.102319755 0.10598853 -0.058638174
-0.012571101 -0.04348389 0.06497805 0.095583096 -0.03568447 -0.025401339 0.010715391 -0.028028931
0.020491917 0.046751644 0.03336499 -0.026354799 -0.12216169 0.030800268 -0.026301159 0.15527305
0.010678534 0.03599041 0.040231835 0.07009813 -0.03040647 -0.18797524 0.02385414 0.011912748
0.06409191 0.02152651 0.006475823 0.026724137 0.005519205 0.027459094 -0.037573352 -0.0029714336
-0.10188671 -0.10668885 -0.035470076 -0.10464348 -0.014680217 0.021336284 -0.016650897 -0.0037387318
0.0030468963 0.017526349 0.05581713 0.009343833 0.005116418 0.044587675 0.023377007 0.034850877
-0.038437955 0.035716284 -0.021884589 0.038549375 0.029277217 0.014932025 -0.017354159 0.022004265
0.111498974 -0.046765674 -0.05051823 0.0873531 -0.012936492 -0.06929568 0.049768437 -0.060938857
-0.113089815 -0.009033257 0.06939369 0.012062138 -0.13362205 -0.09342501 0.09671741 -0.011539078
0.0006591816 -0.015395129 0.044273905 -0.0355973 -0.019440435 -0.08393155 -0.08673044 -0.014838159

fc1.bias f4 [400]
00000000: b567 1d3e 2de8 413e f182 b43d 6487 d13d
00000010: ad1e f73d e437 493e 8036 073e 8512 82bb
00000020: 2f0c 303e c0cb aa3c 87c5 763e 666d dd3d
00000030: a887 20be c363 2cbe ad16 003e 36f5 fe3c
00000040: 0379 c1ba 9c0c 12be 97fe 0ebd 20e0 403e
00000050: 710c 10be 337f 273e 7e4e 2c3e 2ec4 57bc
00000060: 448f 64bd 22d2 93bd 6be6 4b3d d6dc c3bd
00000070: aa33 cdbd 821b 5cbd 9373 253c cb40 3e3e
00000080: 2c8e eb3d 8dbe b7bc b301 293e 38e5 61bd
00000090: 0c62 8cbb f36f 2fbe ca09 d93d fc45 b6bd
000000a0: b3f5 5bbd b1cd 67be 67d9 943d 52a6 ecbd
000000b0: 8ee9 353c edcb 39be 9614 f0bc 37ec 813d
000000c0: 11a5 153e 12db 3ebe c71a 41be 6f2a 423c
000000d0: 92ec 3dbd 7a23 1cbe d485 1ebe 604d 563d
000000e0: 2d34 3f3d 168c 983d a334 92bc 27cb 463d
000000f0: e138 91bc 51b6 a5bd 0dd3 4abc 1e46 6cbd
00000100: a9f8 cfbd 759e ee3d 9ad7 1bbe 4209 3dbe
00000110: 1042 483b 7a40 df3d 85e6 15be 1c79 023d
00000120: 492d 9ebd 7da3 e0bd cce0 f53d 1486 20be
00000130: 3d73 8fbd 76fd d5bd 1ccd 1cbe 0fb4 87bd
00000140: 887b fbbd 53a5 b63b 842c 63be 1f44 953d
00000150: 3750 abbd 5584 20be 107c 293e 699f 203e
00000160: ace5 49bd 1ae5 0fbe 7bff 183e a09d 303e
00000170: cebc b63d c92c 69bc d883 21be 94fb a63d
00000180: f569 953d 4d83 45be d1e8 523d 1e53 18be
00000190: bc62 84bd 382d f33d f8bb ab3b 649e 173e
000001a0: 9094 87b8 055c 2bbc 0aea 293e 3057 9f3d
000001b0: 59b7 ebbd bdea c3bd f9e9 073e ff32 54bd
000001c0: 4db2 943d 647e 3abe a5dd ab3d 23a2 99bd
000001d0: d2d0 37be feab cb3d 0e10 0b3e d3f1 f83d
000001e0: 1efe 003e 20c9 0dbe 5365 063e 787c 113e
000001f0: 0cf0 07be 8864 1e3e ea3e 5c3e c7b6 ec3d
00000200: 4027 06be 5d8a f73d d464 193d 2674 b93c
00000210: 2106 b33d 1c66 3cbd d180 35bd 19ed 233d
00000220: fef1 edbd bdb9 44be 465d 3dbe 6558 9abd
00000230: bfd5 e4bd 9298 e13d 555f ddbd 9363 053d
00000240: c948 98bc 5c20 98bd 3b1b 613d 66f6 083e
00000250: 18cd 0ebe 75ee cf3d 172a a6bd 36ae 953d
00000260: 948b e63c 0ef2 013c 5761 f4bd 31e2 dd3d
00000270: 95d4 f5bd 61db 05be 4577 74bd 3c4d a03d
00000280: 3104 1a3e 1920 55bc 02b4 473d 0f2e dcbd
00000290: ae94 1f3e 8675 7dbe bb64 6ebd ecb1 1bbd
000002a0: 4bea 32be fbcf 023e 43ff d33c f3f3 163e
000002b0: a6ff 963b cd1a 51be 502e 9f3d b222 46be
000002c0: b2d8 fcbc 3fb1 7f3d cd85 093d c714 843d
000002d0: cb98 0abe a91d a9bd da7d 3e3d 4ea4 c43d
000002e0: f457 5a3d d4fa f6bd 887c 533d f7b3 ac3d
000002f0: 52ad a7bd b8ce 853d caa3 263d c915 8cbd
00000300: d77b 233c e8f2 2cbc 51e4 15bd 5a39 f7bd
00000310: 06b1 28be ca48 85bc c5ac 2c3d ee5d a23b
00000320: 09c8 babc 0a54 82bc a82b 003d d197 ea3c
00000330: 043f f43d 8e38 34bd 2340 dcbd 57c6 38bd
00000340: f141 08bd 48af b9bd 5fbb 15be 8fde 08be
00000350: eb01 46be 4265 9b3d 91b4 44bd 5b26 e2bc
00000360: 524c e43d dceb 11bd fddc 5ebd 0b70 963e
00000370: be36 713d e9b8 6abe c6b5 a83d 5503 b6bd
00000380: 7dec dbbd 4ba0 7abd a718 213e b910 0fbe
00000390: 0390 81bd a151 f3bd 2bed edbd e1ba 0dbe
000003a0: 6494 08be f505 183d c5d4 bd3d 2eb7 463e
000003b0: c515 f13d f9d9 c4bd 6bf8 833d 5e22 eabd
000003c0: ddd0 fc3d 1a6b 22be 537f 0a3d 9a3c 9cbc
000003d0: bf9b e63d 4749 62bd 6355 653d 1697 973c
000003e0: c6d1 28bd 38dd e23b 592b 0a3e c0fe c53d
000003f0: 3d24 423d eafb 40bd 1831 21be c1ce c73d
0.15371592 0.18936224 0.088140376 0.10230902 0.12066398 0.19650227 0.13204384 -0.003969493
0.17192148 0.020849109 0.24098788 0.10811882 -0.15676749 -0.16834931 0.1250865 0.031122785
-0.0014760796 -0.14262623 -0.034910765 0.18835497 -0.14067246 0.16357116 0.16826817 -0.0131693315
-0.05580069 -0.07217814 0.04978029 -0.095636055 -0.1001962 -0.05373717 0.010098356 0.18579404
0.115017265 -0.022429729 0.16504554 -0.05515024 -0.004284149 -0.17132549 0.1059757 -0.08900067
-0.053701114 -0.22637059 0.07268029 -0.115551606 0.011103047 -0.18144198 -0.029306691 0.063438825
0.14613749 -0.18638256 -0.18857871 0.011850937 -0.04636819 -0.15247908 -0.15480739 0.052319884
0.046680618 0.07448594 -0.017847365 0.048533585 -0.017727317 -0.08091415 -0.01237942 -0.057684056
-0.1015485 0.11651317 -0.15218964 -0.18460563 0.0030556954 0.1090097 -0.14638717 0.03185378
-0.07723481 -0.10968683 0.12005767 -0.15676147 -0.07004402 -0.104487345 -0.15312618 -0.0662614
-0.12279421 0.0055739074 -0.2218495 0.07288384 -0.08364909 -0.1567548 0.16551232 0.1568581
-0.049291298 -0.14052239 0.14941208 0.17247629 0.089227304 -0.014231869 -0.1577295 0.081534535
0.072956 -0.19288369 0.051491562 -0.14875457 -0.064641446 0.11873859 0.0052409135 0.14806515
-6.4649736e-05 -0.010458951 0.16593185 0.077803016 -0.1150958 -0.09566257 0.13272847 -0.051806446
0.07260571 -0.18212277 0.08391885 -0.07501628 -0.17950752 0.09944914 0.13580343 0.12155499
0.12596938 -0.13846254 0.1312459 0.14207637 -0.13275164 0.15468037 0.21508375 0.115582995
-0.1310091 0.120869376 0.037449673 0.022638392 0.08741403 -0.045995817 -0.044312302 0.040021036
-0.11618422 -0.19211479 -0.18492612 -0.07536391 -0.11173581 0.110154286 -0.10809199 0.032565664
-0.018589394 -0.07428047 0.05495761 0.13375244 -0.13945425 0.10152904 -0.08113497 0.07308619
0.028142728 0.0079312455 -0.119326286 0.10834158 -0.120034374 -0.13071968 -0.059684057 0.07827231
0.15040661 -0.013008141 0.048755653 -0.107509725 0.1558406 -0.24751863 -0.058201533 -0.038011476
-0.17472188 0.12774651 0.025878554 0.14741497 0.0046081124 -0.2042038 0.07772505 -0.19349173
-0.030865047 0.062424894 0.033574868 0.064492755 -0.13534848 -0.0825761 0.04650674 0.09601651
0.053306535 -0.120595604 0.051632434 0.08432763 -0.08187355 0.06533569 0.040683545 -0.06840093
0.009978256 -0.01055596 -0.036594693 -0.12071486 -0.16473779 -0.01627006 0.042156953 0.004955045
-0.022800462 -0.015909214 0.031291634 0.028636845 0.11926082 -0.043999247 -0.107544206 -0.045111027
-0.03326601 -0.09066635 -0.14622258 -0.1336615 -0.19336669 0.07587673 -0.048023764 -0.02760618
0.111473694 -0.035625324 -0.05440997 0.29382357 0.058890097 -0.229221 0.082377955 -0.08887354
-0.10738466 -0.061188024 0.1573206 -0.13971223 -0.06326296 -0.11880804 -0.11617502 -0.1384082
-0.13337857 0.037115056 0.09269098 0.19405815 0.1177173 -0.096118875 0.06443866 -0.11432336
0.12344525 -0.15861169 0.033812832 -0.019071866 0.11260175 -0.055245664 0.055989634 0.01850466
-0.04121568 0.006923344 0.13493098 0.0966773 0.04739784 -0.047115244 -0.15741384 0.09756232

fc2.weight f4 [300, 400]
00000000: 53b2 8fbb 4b5a 043e 1799 d7bc 7e01 303c
00000010: 6d74 cf3d 35c5 903d acc5 0e3e 7abd 7d3b
00000020: d777 fb3d 8ff2 08be ef5e 49be 3553 423d
00000030: 7a25 2dbc a073 623d 98d3 a13d 2b31 56bc
00000040: 5d59 10be 14e5 efbd 72de f3bc f89b 07bc
00000050: badc 6b3d 2a97 87bd b39a f93c 050d 04be
00000060: 7fff 333d f843 143d a4c3 4cbd 327b d93d
00000070: ec73 b03d 8b96 8abc d024 7f3d e916 903b
00000080: 150e 34bb c17d 10be 56eb f73b 6eee ff3c
00000090: ed02 b9bc f42d 13bd 8f59 2fbd 018e f2bc
000000a0: 2b94 f33c 95e7 a73d 4dae 5cbe a87d a53d
000000b0: bbbc 2bbc d54c cdbc c8df 1bbe b696 4bbe
000000c0: 5327 a73d b1d3 b5bb 87b9 953b 79c9 a7bd
000000d0: b75d 8f3d f6be 933c 3092 22be 27d1 253e
000000e0: ac75 b2bc 0c30 743b b139 b7bc e221 64bd
000000f0: 6dcb 903d 1e75 29be d238 2dbd dcab 2ebe
00000100: 0a81 18be e75b 92bd 9bc5 323d 5f9a 6a3d
00000110: 4e3a 4c3d c1df d2bc 98b4 113e cbcf 593d
00000120: b022 d23d 7857 53bd 2e3b a0bd fc10 38be
00000130: 3bf1 4c3c 6c57 c53b e97d 06bd 0319 e4bb
00000140: df90 e6bd 6cb2 d33c 05f8 fa3c ef1f c33c
00000150: 52ad df3d dac9 f1bd 26c6 d6bd b824 933c
00000160: 435d 9bbd 3fdd 8fbd da90 863d ed76 2dbd
00000170: ed26 ee3d 0638 80bd 6dc5 95bd 4c79 6a3d
00000180: 05a9 f5bd 87b9 733c 6643 9d3c 3838 46bb
00000190: f81f 34bd 5746 1f3d b1e5 713d 40e7 bcbd
000001a0: f0bf 6f3d 2a5e 523d b002 94bd 2ada eabc
000001b0: a1a8 213e 9a7d c0bc 03c6 e13d aad1 883d
000001c0: 96ba 0ebd 366b 373d dafa 4fbd 5f49 d13d
000001d0: 83c0 bb3b 5f8a eabd b38a 773d 877f bf3d
000001e0: fa17 28bd 24c6 3c3e ad27 dbbc daaf c73a
000001f0: 55eb 49be 1373 b4bc ad23 3fba 1dcd 10bd
00000200: c677 3cbd 8767 af3c 232b 44bd 6325 863b
00000210: b67c 223d 2900 aa3d 7b56 8abd c0a2 2abe
00000220: cd54 e1bc b089 d9bd f498 b93d 489b 433e
00000230: d06a da3d 5e52 e73d 15a0 3c3c b726 6fbe
00000240: 6cba aa3d 456b 983c 3c8d ff3d 5efd a8bc
00000250: 8b38 523d fb78 aabc 80ad 54bd e7d9 1bbc
00000260: 4899 01be 1479 5e3d 3408 3d3c 1d60 19be
00000270: 6d6e 67bd 6485 0f3d 5cf0 92bd dabf 1b3e
00000280: 4ca3 86bd fe32 4a3d 0c98 2f3d 5027 0bbd
00000290: 77f9 9abc 85de da3b 3f70 2fbd f6c5 5fbc
000002a0: 92cf 5f3d d95d f9bc 995c bc3d 99d4 1abd
000002b0: 1856 9f3d 8ab3 963c 35c4 0e3e 8aa2 3fbc
000002c0: 4fdc a23c 2cba 443d 4a09 41be eeb5 8e3d
000002d0: 4cf0 8d3e ff30 77bd 6de8 75bd fc5f cd3c
000002e0: 2fc7 383d ab2f 553c 80fd 97bd 5026 013e
000002f0: 948f 323d c721 f1bc 970c a2bd bde5 2d3d
00000300: e5b5 bcbb 1efb 2b3c 8a3e 36bd 2ab4 aa3c
00000310: 99aa 1c3d 2de0 bebd 0eef 03bc 2932 f8bd
00000320: bca5 fe3c 0934 873b e944 91bd 2566 513d
00000330: a957 2c3d 5411 48be 8ae9 c6bc cffe 033e
00000340: baf4 803d 66c5 8f3d e47e f0ba 602e cabd
00000350: 2655 d63d 4fb8 c53d ad33 a6bd df99 19bc
00000360: 1271 ec3c cc23 34bd bea7 d43b 81ed 3d3c
00000370: d56f a5bb 0b53 55bd 7a8f 0bbe ffc7 8fbc
00000380: 8a3a 16be b5b3 90bd 170c a83b b1b4 b43d
00000390: 6825 293e d1e6 b03c d814 243c ac7e 0d3d
000003a0: d5de e03c 6a85 00bc ee43 883d 70ed 103c
000003b0: f0fe 2d3e 6a7a 12b6 b5aa 9d3c 8da1 ffbd
000003c0: 84d8 1bbe 71c7 633d 3541 02be c10c 883b
000003d0: d542 afbd 97e5 163e 8fb5 9fbd 4ec3 8b3d
000003e0: f91a 40be 8805 bb3d 5790 d03c c345 20bd
000003f0: e492 4cbe 2840 d8bc 3f63 f3bd ad47 e63d
-0.0043852716 0.12925069 -0.026318116 0.010742543 0.10129628 0.07068864 0.13942593 0.0038717673
0.12278717 -0.13373779 -0.1966512 0.047442634 -0.010568017 0.05528605 0.079016864 -0.013073246
-0.1409659 -0.11713615 -0.029769156 -0.008276932 0.057583548 -0.06620629 0.030469274 -0.12895592
0.043944832 0.036197633 -0.049991265 0.10619201 0.0861586 -0.016917488 0.062290967 0.0043972624
-0.0027474214 -0.14110471 0.007565896 0.031241622 -0.022584403 -0.035932496 -0.04281002 -0.029608728
0.029733738 0.08198468 -0.21550865 0.08080608 -0.010482009 -0.02506105 -0.15222085 -0.1988171
0.081617974 -0.005548917 0.0045692357 -0.08192725 0.070002966 0.018035393 -0.15876079 0.16193067
-0.021784626 0.0037260083 -0.022366377 -0.055696376 0.070700504 -0.16548583 -0.042290516 -0.17057747
-0.14892974 -0.07146435 0.043645483 0.057276126 0.04986029 -0.02574146 0.14229047 0.053176682
0.10260522 -0.05159709 -0.07823788 -0.17975229 0.012508686 0.0060223844 -0.03283492 -0.0069609894
-0.11258101 0.025841914 0.030635843 0.023818938 0.1092173 -0.11806078 -0.104870126 0.017961845
-0.07586148 -0.07024621 0.06570597 -0.042349745 0.11628518 -0.062606856 -0.073130466 0.057244584
-0.119951285 0.014875776 0.019197177 -0.0030245911 -0.0439758 0.03888544 0.05905694 -0.09223795
0.058532655 0.051359333 -0.07227075 -0.028668482 0.15786983 -0.023497391 0.11024096 0.06680615
-0.03484591 0.04477998 -0.05077634 0.102190726 0.0057297363 -0.114521734 0.06043501 0.09350496
-0.04103849 0.1843496 -0.026752317 0.0015234903 -0.19718678 -0.022027528 -0.0007291388 -0.03535186
-0.046012662 0.02141167 -0.0478927 0.0040938123 0.039669715 0.08300812 -0.06754776 -0.16663647
-0.027506256 -0.10621965 0.090623766 0.19102204 0.10664904 0.11295007 0.011512776 -0.23354612
0.083363384 0.018605838 0.1247811 -0.020628627 0.051323455 -0.020809641 -0.051923275 -0.009512401
-0.12656128 0.054314688 0.0115376 -0.1497807 -0.056501795 0.03503932 -0.07174751 0.15209904
-0.06574115 0.049365036 0.042869613 -0.03397304 -0.018917782 0.0066793584 -0.042831656 -0.013658037
0.054641314 -0.030440258 0.09197349 -0.037800405 0.07780093 0.018396158 0.13942035 -0.011696467
0.019880442 0.04802911 -0.188512 0.06968294 0.27722394 -0.06034946 -0.06003611 0.025070183
0.04511183 0.013011853 -0.07421398 0.12612271 0.043593958 -0.029435052 -0.079125576 0.042455424
-0.005758988 0.010496883 -0.044493236 0.020837862 0.038248632 -0.09320102 -0.008052601 -0.12118942
0.031084888 0.004126076 -0.07093222 0.051122803 0.042075787 -0.1953786 -0.024281282 0.1289017
0.06296678 0.07020073 -0.0018348363 -0.098721266 0.104654595 0.09654295 -0.08115325 -0.009375065
0.02886251 -0.04397945 0.006489723 0.01159227 -0.005048732 -0.05208115 -0.1362895 -0.01755142
-0.14670768 -0.070655264 0.0051283943 0.08823527 0.16518176 0.021594437 0.010014735 0.03454463
0.027450005 -0.007844308 0.066535816 0.008845672 0.16991782 -2.182695e-06 0.019246439 -0.12481985
-0.15219313 0.055610124 -0.12720187 0.004151911 -0.08557669 0.14736019 -0.077983014 0.06824361
-0.18760289 0.091319144 0.025459452 -0.03912903 -0.1997791 -0.02639778 -0.11884164 0.1124414

fc2.bias f4 [300]
00000000: 1ba9 83bd 1680 1e3c 8a39 213d 0295 293c
00000010: 9f6b 5d3d 6425 a5bb 2995 1c3d 09f1 9cbd
00000020: a079 78bc 9ab5 b4ba c873 2fbd bd66 10bd
00000030: 6e37 bcbc a0eb fe3c 8757 e2bb 3ab6 5e3b
00000040: c3b3 873c 3a43 12bd 1a06 c23d 0508 263d
00000050: b4f9 f13c 7915 88bd 410e 0bbd 186c 553d
00000060: 3169 393c edda e53c 4ba9 9f3c 7c42 87bc
00000070: a1a9 e43c 0c88 15bd b1da ae3c 75ae 293d
00000080: dd14 a93c 9cf5 373d b83d 8dbc 138a c9bc
00000090: 85a8 633d d845 163c 7f13 213d 8e39 00bc
000000a0: bc97 d2bc 2a5d 1d3d 398f 02bc cdd5 29bc
000000b0: 4191 663d d1fa 853c 41db 563d fa59 8c3c
000000c0: 57e4 c0bc 55e9 8fbc 6643 efbc 9c14 d3bb
000000d0: d08d d33b dfe8 233c ede8 3a3d 20cf 72bc
000000e0: 3c1a b6ba 07e3 93bd 76d9 1f3c 3110 a1bd
000000f0: 32d7 913c 5cfe 5e3c 3a16 e23c a112 263d
00000100: 0a4b 5c3d 9cd3 c33c 6dda af3d f462 9d3c
00000110: 1d8c 28bd 14c0 5bbc 6aaf 20bc 3d7a 20bd
00000120: 1d8e 33bc 03d9 2d3d 8182 e5bc 586e 8abd
00000130: a72b 843c eac9 f53b abb3 cf39 b205 5cbd
00000140: baf0 ff3c 15f9 2b3d d130 893d ab51 08bd
00000150: adfb d33b 9773 57bc 1cef c53c c5d1 edbc
00000160: e611 35bd f642 e43a be92 203a 9c66 363d
00000170: ddfe 72bc 5345 dc3c a6f2 a13d eec2 53bd
00000180: 66f5 47bc ba5b ccbc 9455 a83c f9e4 8a3d
00000190: c1c1 ecbc 2607 a23c 5789 163c bfe8 01bc
000001a0: b5f9 db3a 3c25 b73c a2e3 e1bc 71d2 553d
000001b0: 388f 6ebc ab86 703d 9fe2 25bd e975 4a3b
000001c0: 23fe 653d be79 113d ae1e 3bbd 0b52 c23c
000001d0: 609b 593c c672 cc3c b7d5 47bd 47c1 033d
000001e0: 8399 5e3d 3895 1f3d 5022 d9bb 47dd 243d
000001f0: b4eb 033d 07e8 f53c 0c07 31bd eaab e9bc
00000200: cb30 c43b 404f db3a 3cf8 46bc 500e 0e3d
00000210: 7788 a33b cc20 153d a3e5 adbc 76f5 bdbb
00000220: 0c52 643d 7157 7ebd e45e da3d 501f f8ba
00000230: e428 193d f7f7 e03b 550e c6bb ebe8 a1bc
00000240: f563 b13c 583a 8cbd 2d30 f6bc 443e 51bc
00000250: 818d 023d 22b7 003d 8309 17bd 7ba2 15bc
00000260: 2122 033d 4a5d 4d3d 99d8 d03a 709f 6c3a
00000270: d3eb 413d d252 d6b9 9c4b 2f3d c540 2e39
00000280: 518b 01bd 6f3b 02bd 568b 013d b784 133d
00000290: b727 5cbd 3787 2ebd a215 49bd 308e 0a3c
000002a0: 17a3 2ebc a3eb 1cbd 58f6 fabb 9254 32bd
000002b0: 2c1e 983d 361a 84bd b784 3abd b164 08bd
000002c0: e925 0fbd 08a1 b73c 7245 5dbd 3636 303c
000002d0: 1582 513d 5363 f939 a0e7 c8bc 8fdd 773b
000002e0: 42dd 373d 046a a7bc 2d34 f9bc f1ab a5bc
000002f0: 843e c33d 202e 57bd f272 4cbd 9edb b73d
00000300: ba9a bcba b29c 11bd 18d4 46bd 289a 013d
00000310: 43d1 913c fea4 cf3c ef2b 4d3d b59c 96bb
00000320: 30e8 313d 0a82 85bd 2df6 0abd 5b97 2dbc
00000330: 6ccb 18bc 4c6f 023c d9ce 563c 0d01 483b
00000340: 3051 503c 15d6 943c e308 823c 8567 8dbd
00000350: ba9d 1bbd 4179 f73c 2f20 f8bc 998d 913b
00000360: f466 943c 8c61 4fbc 2d52 913d 97aa b6bc
00000370: 0fd0 93bd 2e01 7abd 7ae5 2c3d ca86 283c
00000380: dc7e 2d3c d864 ad3c fac5 a33d 4fa9 d9bc
00000390: 7236 093d 5661 8c3c fa87 403d c07e 583d
000003a0: 04b7 593d 4bd3 83bb c230 0f3d ece2 c3bc
000003b0: 58b8 78bd ca53 723d 70a5 bfbc b06e 0e3d
000003c0: 766a 32bd 3618 c93c 0fb3 70bb 56f0 833b
000003d0: a239 123d e161 e93b b68e e3bc 807e 8c3c
000003e0: a272 0cbd ae13 203d 26cf 22bc ae38 103d
000003f0: 5608 80bc e86b 073d beef 043e 2397 a93d
-0.06428739 0.009674093 0.039361514 0.010350468 0.054057714 -0.0050398577 0.038228188 -0.07663161
-0.015165716 -0.0013787032 -0.042835027 -0.03525423 -0.02297565 0.031118214 -0.0069074067 0.0033983127
0.01656521 -0.035708643 0.0947382 0.04053499 0.029538013 -0.066447206 -0.03394914 0.05210504
0.0113165835 0.028058494 0.019489905 -0.016511194 0.027912917 -0.036506698 0.021344515 0.04142614
0.020639831 0.044911966 -0.017241344 -0.024601972 0.055580635 0.0091719255 0.039325234 -0.007826222
-0.025707118 0.038418926 -0.007968717 -0.0103659155 0.05629087 0.01635495 0.05245519 0.017132748
-0.02354638 -0.017567316 -0.029206943 -0.006441666 0.0064561144 0.010004251 0.04563229 -0.01481989
-0.0013893316 -0.072210364 0.009756437 -0.078644164 0.017802808 0.013610449 0.02759849 0.04054511
0.0537825 0.023904614 0.08586583 0.019212224 -0.041149247 -0.013412494 -0.009807447 -0.039179076
-0.010959175 0.042443287 -0.02801633 -0.06759328 0.016134096 0.0075008767 0.0003961598 -0.05371637
0.031242717 0.04198559 0.06698764 -0.03328101 0.006469211 -0.013150117 0.024161868 -0.02903069
-0.044206522 0.0017414975 0.0006125382 0.04453145 -0.014831272 0.026888525 0.0790761 -0.05169957
-0.012204504 -0.024946082 0.02054862 0.06781954 -0.028900983 0.0197788 0.009188018 -0.007929026
0.0016782793 0.022356622 -0.027574364 0.052202646 -0.014560513 0.05872218 -0.040499326 0.0030893034
0.056150567 0.035516493 -0.045683555 0.023720762 0.013281673 0.024957072 -0.0487878 0.032166746
0.05434562 0.038960665 -0.006626405 0.04025009 0.032207206 0.030017866 -0.04321961 -0.028524358
0.005987262 0.0016731992 -0.012144145 0.03468162 0.004990633 0.03640823 -0.021227663 -0.0057970835
0.05574231 -0.06209511 0.1066263 -0.001893023 0.037392512 0.006865497 -0.006044189 -0.019764384
0.021654109 -0.06847066 -0.030052269 -0.012771193 0.03187323 0.03142465 -0.036874305 -0.009132977
0.03201497 0.050137796 0.0015933692 0.00090264436 0.04734404 -0.00040878967 0.042796716 0.00016618062
-0.031627003 -0.03179496 0.03162702 0.03601524 -0.053748813 -0.04260942 -0.049092896 0.008456752
-0.010659001 -0.03831066 -0.007658761 -0.043537684 0.0742763 -0.06450312 -0.045536723 -0.03329915
-0.034948263 0.022415653 -0.054021306 0.010755112 0.051149447 0.00047566983 -0.02452451 0.0037821268
0.044888742 -0.020436294 -0.030420387 -0.02022359 0.09533408 -0.052534223 -0.049914308 0.089774355
-0.0014389374 -0.035549827 -0.048542112 0.031641155 0.01779998 0.02534723 0.050090726 -0.0045963177
0.043434322 -0.065189436 -0.033926178 -0.010595168 -0.009325843 0.007961106 0.01311084 0.0030518204
0.012714669 0.018168489 0.015873378 -0.069045104 -0.037992217 0.030209186 -0.030288784 0.0044419286
0.018115498 -0.012657534 0.07095752 -0.02229814 -0.072174184 -0.06103628 0.042211033 0.0102860425
0.010589328 0.02116625 0.079967454 -0.02656999 0.03349919 0.017136257 0.047004677 0.052855253
0.053153053 -0.004022991 0.03495861 -0.023911916 -0.06072268 0.05916194 -0.023394316 0.03477353
-0.04355856 0.024547677 -0.003672782 0.004026453 0.035699494 0.007122264 -0.02777801 0.017150164
-0.03428901 0.039081268 -0.009937083 0.035210304 -0.015628975 0.03306189 0.1298208 0.0828078

fc3.weight f4 [4, 300]
00000000: cad7 6ebe eb08 053c baa5 e83c 009f e43d
00000010: 8760 5f3c 2914 363d 3fc4 3fbd 9777 cabe
00000020: c0cd 0a3d 38d5 1dbe 3c1f 803c 95b1 01be
00000030: 6a65 823d e5d7 733d 0d2c ee3d 34d8 083e
00000040: 99b9 9a3d d5ec 5cbe 57ce 98bd 1fad 743e
00000050: 59ad 16bc 0f77 a33d 2d41 963e 7bad 053e
00000060: 1bea 013e f680 fd3c 18b1 5dbe db31 d8bc
00000070: c80b dabe 622e 87bb f205 103e 4461 863d
00000080: 23c1 d4bb d73c c63d dd86 723c 9178 4cbc
00000090: 4a4f c3bd 7c4b 663d befc b13d 47e8 34bd
000000a0: ef7a 81bc 0c67 0a3e 588b 943e ce3b 5e3c
000000b0: d463 61bd 82ea 103d ded8 443d ae0f a93c
000000c0: 6d4d 14be 75b7 a63c 7527 78be eaf8 d5bc
000000d0: 685e ce3d ec71 d5bd 3c46 853e b6e6 cb3c
000000e0: 914b 21bd bea4 b9be 34ec 9e3c d2eb e5bd
000000f0: 35fb ffbc c432 5dbe 2f3b d63c d0fd 34bd
00000100: 8971 c93b dc1d d83d c243 0e3d 2e7a 26be
00000110: 36bb dc3c 73f9 a53d 5a69 013d af05 1ebe
00000120: dc99 f1be db52 99bc be97 8b3e 8787 07be
00000130: 546b 13be bed2 7d3e e529 eabe 57e8 c13d
00000140: adb5 bc3c 4dfc b33d bc51 4abc 17f9 c63d
00000150: fb80 293e 7d4e 893c 8a2a adbd 9037 983d
00000160: 9e0a 4bbe 6d63 c9bd 3f1e 0ebe 6e65 29be
00000170: 6a0a ce3d 3ee9 9fbb 55c6 383c 469c e2bd
00000180: fc89 9dbb b4ce 01be 3771 37bd b020 2ebd
00000190: 9e8a cebc 9338 cebe 34dd a23e 6b77 49be
000001a0: 5b4d 353d 22ed 0f3e f6fb 703c e4ee db3d
000001b0: 2811 23be d8bc ab3e 7776 0bbe 0d16 fabc
000001c0: 3916 883d 8511 ddbe 6992 8e3c 231e 19bf
000001d0: 0ac7 34bc 0254 80bc d071 153e 2613 73be
000001e0: c647 093e 5a5b b13c 8375 f43d 3a58 b03d
000001f0: 80e0 9bbc 0b5c bd3e 1910 d43d 547f 173d
00000200: 60fe a4bd 3af1 953d 01c6 243d 6c56 b83d
00000210: ca60 55be 2cde b8be 2c37 213e 1b8c bb3d
00000220: 4be0 133d 2d43 aebe eda6 c0bc f48e 393e
00000230: f211 8a3e 7c7d d63c d673 26be 6190 8d3e
00000240: 25cd 1cbf 6e1a 6f3e 8200 603d 9952 823c
00000250: 5208 d4be 87e6 8e3c 0503 9fbc 70ca 05be
00000260: 20f5 443e c780 093d 9b5b 87be e139 0a3b
00000270: d701 073c d167 18bc 62a6 a5bc 1d8b 20be
00000280: 6bc6 79bd a42e 89be 364b b8bd 844b 983c
00000290: dceb 4e3d a458 3fbe 93cd 133e 1535 6abe
000002a0: bf33 3d3d a535 993d ce46 9f3d 15cf 053e
000002b0: 2855 653e 10c4 8ebe 2350 403d fb51 53be
000002c0: 5091 113d 71fc cebc 6fae 573e 967a 1cbc
000002d0: 6356 593c f0e3 043e 48cd e7be 4b91 ac3c
000002e0: db35 02bf c668 8cbe 34b9 323d c8e2 f1be
000002f0: eae2 a6bc 7cf5 0a3e a616 023e 9bfe 363d
00000300: dfb4 57be dff7 6cbe 43be 1cbd 1a01 a43c
00000310: b4b3 25bc fe54 113d cfe2 063d d5ba bfbd
00000320: b90b f2bb 1cfa 7cbe 4c26 c03d be45 acbb
00000330: 3ba4 b63c 7790 dbbd 4e01 46bd dd61 8abd
00000340: f6dd 0d3e 1211 9c3e 5dcb 03bf 84a3 2abe
00000350: 3e73 9f3d 0b15 2cba 0ef4 dbbd 4c68 623e
00000360: 4696 1cbe 35e0 543d e91f 6e3c a78e 9c3c
00000370: 28ae 523e 5a9d 273e 64e1 a93d 4f2a 8f3c
00000380: bff3 b3be 929a bcbe 1f5a d53d 6d5a 233d
00000390: 7e53 c63d e377 01be bf2f 62be c7c5 d9bd
000003a0: dde0 a33a 57f2 cb3d ab5a 5abd f76e 1a3d
000003b0: f235 87bc b00e f33d 3aa1 0cbe 137f 703c
000003c0: 0964 b9bd 3b19 3f3e 7da4 c9bc a61a f9bc
000003d0: dca0 24be 8f96 1a3d 01ae 4ebf f257 c73d
000003e0: 0a82 833d f763 63bd 0c3e 08bf 529f eabc
000003f0: 08a4 15bf 49a8 c03c 4d1e 073d bfe7 d7be
-0.23324504 0.008119802 0.028399337 0.11163139 0.013633854 0.04445282 -0.046818014 -0.39544365
0.033887625 -0.15413368 0.015639894 -0.12665398 0.063669994 0.059532065 0.11629496 0.13363725
0.07554931 -0.21574719 -0.07461231 0.23894165 -0.009196603 0.07981693 0.293466 0.13054459
0.1268696 0.030945282 -0.21649587 -0.02639096 -0.42587113 -0.0041254023 0.14064768 0.06561521
-0.0064927503 0.09679573 0.014802662 -0.012479917 -0.095366076 0.05622433 0.08690785 -0.04416683
-0.01580569 0.13515872 0.2901256 0.013564063 -0.055026844 0.035379894 0.048058383 0.02063736
-0.1448266 0.020351151 -0.24233802 -0.026119668 0.100766 -0.104221195 0.26030147 0.024890285
-0.039378706 -0.362585 0.01939974 -0.1122662 -0.031247715 -0.21601397 0.026151268 -0.044187367
0.0061475676 0.1055257 0.034732588 -0.16257545 0.026944738 0.08104219 0.03159461 -0.15431856
-0.47187698 -0.018716266 0.27264208 -0.13235293 -0.14396411 0.24787423 -0.45735088 0.094681434
0.023035849 0.08788357 -0.012348589 0.09715479 0.16553108 0.016761059 -0.08455379 0.07432473
-0.19828269 -0.09833417 -0.13878725 -0.16542599 0.1006058 -0.0048800996 0.011277755 -0.11064963
-0.004807709 -0.12676507 -0.044785704 -0.042511642 -0.025212582 -0.40277538 0.3180939 -0.1967446
0.044263225 0.14055303 0.01470851 0.10738924 -0.15924513 0.33542514 -0.1361941 -0.030528093
0.06644864 -0.4317743 0.017403798 -0.5981161 -0.011033783 -0.015665058 0.14594197 -0.23737773
0.13406286 0.021650005 0.11936476 0.08610578 -0.019027948 0.36984286 0.10354633 0.036986664
-0.08056331 0.07321401 0.040227894 0.09000859 -0.20837703 -0.36107004 0.15743703 0.09157582
0.036102574 -0.34035626 -0.023517096 0.18120939 0.26966816 0.026182882 -0.16255125 0.27649215
-0.61250526 0.23349926 0.054687984 0.015908526 -0.41412598 0.017443908 -0.01941062 -0.13065505
0.19234133 0.033570077 -0.26437077 0.0021091627 0.008240185 -0.0093020955 -0.02022094 -0.15678068
-0.06098024 -0.26793396 -0.0899872 0.018590696 0.0505179 -0.18686157 0.14433889 -0.22871812
0.046191927 0.07480935 0.07777177 0.13067277 0.22395766 -0.2788396 0.046951424 -0.20636742
0.03553897 -0.025266858 0.21062635 -0.009550711 0.013265225 0.12977576 -0.45273805 0.021065375
-0.50863427 -0.27423686 0.043633655 -0.47243333 -0.020371873 0.13570207 0.12703952 0.044676404
-0.2106509 -0.2314143 -0.038267385 0.020020057 -0.010113645 0.035481445 0.032931145 -0.09361807
-0.0073866514 -0.24704784 0.093823045 -0.0052573374 0.022295108 -0.10720914 -0.048341088 -0.06756947
0.13854203 0.30481774 -0.5148218 -0.16663939 0.077856526 -0.0006564415 -0.10739909 0.22110099
-0.152917 0.051971633 0.014533975 0.01911099 0.20574248 0.16368619 0.08294943 0.017476229
-0.351469 -0.36836678 0.1041758 0.03988116 0.096838936 -0.1264339 -0.22088526 -0.10633426
0.0012502928 0.09958332 -0.053309124 0.03770348 -0.016505215 0.11868036 -0.13733378 0.014678734
-0.09052283 0.18661968 -0.024614567 -0.030408215 -0.16076988 0.03774124 -0.8073426 0.09733571
0.06421287 -0.055515256 -0.53219676 -0.028640423 -0.58453417 0.023517745 0.03298788 -0.42168996

fc3.bias f4 [4]
00000000: 6038 d5bb 1b34 603d 5717 783d eb0d 963d
-0.0065069646 0.05473719 0.060569134 0.073268734
