checkpoint_critic.pth (torch_old, 542692 bytes, 5 tensors)

fcs1.weight f4 [400, 33]
0.06963942 -0.1033311 0.09292336 0.0036470213 0.012138016 0.0014787199 -0.027947467 0.005202678
-0.059196495 0.006517586 0.016254287 -0.012689029 0.014868836 -0.06470997 0.037422217 -0.10040956
-0.013212337 0.019191127 -0.009563291 -0.019247172 0.010909476 -0.010103522 -0.007451254 -0.027916972
-0.007167719 -0.031183042 0.02316554 -0.027831655 0.028496822 -0.032072395 -0.002158498 0.020004634
0.18082212 0.025796592 -0.015461865 -0.025863282 -0.020863933 -0.0070177047 -0.023813672 0.0068932874
0.0009103419 0.03039372 -0.007197632 0.013448822 0.020587701 -0.024234487 -0.012672418 0.027691828
0.056386515 0.031049326 -0.0077300826 0.045602765 0.006930893 -0.00522551 -0.023308635 -0.033631183
-0.01981456 -0.04272003 0.027992213 -0.018239189 0.045285784 -0.015980156 0.031498138 0.041864447
-0.03546477 0.16608639 -0.0120282415 0.0010400211 0.02264481 0.0071122083 0.003062862 -0.06699684
0.030631661 0.0041739196 -0.04696239 -0.034704193 -0.03772913 -0.016660979 -0.033756614 -0.05211359
0.07394197 -0.060544536 0.004773656 0.005810734 -0.0026105675 -0.031227756 0.005406038 -0.069896504
0.054022625 0.0032979113 -0.013136925 -0.013754352 -0.016925955 0.04818021 -0.028118806 -0.011843462
-0.073535055 -0.022013057 0.045157854 0.008559031 0.006702107 0.059693437 -0.03775069 -0.0025654542
0.042263743 -0.025504163 0.072930306 -0.04428843 -0.024737129 0.0516059 -0.02395545 -0.0693186
0.005114928 0.04261702 -0.03506366 0.0025508376 -0.06814402 0.0017761958 0.0019896051 -0.019814685
0.09669833 0.01665987 -0.025927348 -0.002586718 0.0115833515 0.09080511 -0.051116627 -0.0520426
-0.031285264 0.00040656846 0.0010398515 0.053329065 -0.033672646 -0.047335148 0.05156603 0.006301633
-0.018838855 0.017680984 -0.018723583 -0.0021712277 0.016227465 0.041445628 0.057230428 0.011951562
0.059593793 0.019781142 0.0003347485 -0.008128967 0.0059886165 0.013407368 0.005488591 -0.026168766
0.08169219 -0.00050196116 -0.008900653 -0.049498253 -0.02063382 0.033662327 0.035914354 0.02333679
-0.05382111 -0.016741253 -0.021732163 0.041545507 0.08974271 -0.09605115 0.055005893 0.06344328
0.0456296 0.037110507 0.006298751 -0.0049519753 0.016680134 -0.0008772253 -0.08596173 -0.044657398
0.045378674 -0.01082495 0.038977303 -0.04095959 -0.023384206 0.0049833613 -0.01173294 -0.00075769157
-0.0378441 0.054703124 0.039194733 0.07450099 0.042695597 -0.03919872 0.03259933 -0.0064821127
0.06829065 -0.021179266 -0.03380834 -0.036923617 0.027915943 -0.2221585 -0.02402046 0.14649518
0.0474964 0.026972262 -0.038531147 -0.016850078 -0.0220409 -0.026683277 -0.05157855 0.06688109
-0.08399478 0.030399794 0.024609707 0.003067518 0.04612676 0.0017554419 0.02796594 0.010450279
-0.018764962 -0.029979102 -0.041758765 0.03624616 0.029639926 -0.009851035 0.028862922 -0.03299195
0.030039893 -0.019876216 0.024749456 -0.022260953 0.0011795273 -0.017022885 0.19934194 -0.029022219
0.093577884 -0.030745333 0.02297805 0.03655633 0.0024279845 -0.0023591483 -8.918285e-05 -0.013907523
-0.016614554 -0.062399555 0.03930482 -0.05680435 0.04629829 0.1451272 -0.049087133 -0.026868664
-0.0075814864 0.003244399 -0.0067863404 0.030130386 0.0058618737 -0.01811848 0.011079696 0.04168401
00000000: 1d9f 8e3d 419f d3bd 9a4e be3d dd02 6f3b
00000010: 87de 463c 9bd1 c13a 16f2 e4bc 3a7b aa3b
00000020: 0678 72bd 7991 d53b b627 853c a5e5 4fbc
00000030: 6b9c 733c a986 84bd 0a48 193d 87a3 cdbd
00000040: 8f78 58bc b636 9d3c 5aaf 1cbc 3fac 9dbc
00000050: a9bd 323c 3e89 25bc a629 f4bb 22b2 e4bc
00000060: 2fdf eabb 9473 ffbc a9c5 bd3c 36ff e3bc
00000070: 2b72 e93c 585e 03bd 9675 0dbb c2e0 a33c
00000080: 6f29 393e 6053 d33c c353 7dbc 3cdf d3bc
00000090: d7ea aabc c6f4 e5bb e414 c3bc 16e1 e13b
000000a0: 03a4 6e3a 40fc f83c 1dda ebbb 7358 5c3c
000000b0: 8aa7 a83c 6787 c6bc f99f 4fbc f9d9 e23c
000000c0: 8cf5 663d 285b fe3c a24c fdbb f7c9 3a3d
000000d0: 8b1c e33b c13a abbb c0f1 bebc dac0 09bd
000000e0: 2552 a2bc 33fb 2ebd ed4f e53c 5a6a 95bc
000000f0: 967d 393d d1e8 82bc 3104 013d 0e7a 2b3d
00000100: 8243 11bd 8d12 2a3e 1a12 45bc 5151 883a
00000110: 9c81 b93c 870d e93b 4cba 483b a435 89bd
00000120: 40ef fa3c 60c5 883b a35b 40bd fc25 0ebd
00000130: dc89 1abd 9b7c 88bc 6044 0abd 0f75 55bd
00000140: e36e 973d 8cfd 77bd 546c 9c3b f867 be3b
00000150: 0e16 2bbb 5ad1 ffbc 2225 b13b e625 8fbd
00000160: d446 5d3d c521 583b 423c 57bc ef59 61bc
00000170: 4da8 8abc 9d58 453d 6959 e6bc 140b 42bc
00000180: 8c99 96bd ba54 b4bc 71f7 383d 2e3b 0c3c
00000190: 599d db3b 1b81 743d 78a0 1abd 2e21 28bb
000001a0: bf1c 2d3d 1bee d0bc 7c5c 953d c967 35bd
000001b0: 85a5 cabc b560 533d 383e c4bc e9f6 8dbd
000001c0: 209b a73b 2f8f 2e3d ea9e 0fbd f42b 273b
000001d0: 188f 8bbd 3ecf e83a 0964 023b 6852 a2bc
000001e0: c609 c63d 487a 883c 9765 d4bc ed85 29bb
000001f0: 19c8 3d3c 08f8 b93d ab5f 51bd 9f2a 55bd
00000200: fa24 00bd b228 d539 a04b 883a 946f 5a3d
00000210: 54ec 09bd 80e2 41bd e736 533d ee7d ce3b
00000220: f153 9abc b6d7 903c 3362 99bc 284b 0ebb
00000230: 76ef 843c e4c2 293d 746a 6a3d 7cd0 433c
00000240: 9f18 743d 100c a23c 2f81 af39 5c2f 05bc
00000250: 283c c43b 94aa 5b3c a3d9 b33b e15f d6bc
00000260: 3c4e a73d 0b96 03ba 0bd4 11bc aebe 4abd
00000270: 4208 a9bc 82e1 093d ee1a 133d cc2c bf3c
00000280: 8673 5cbd f424 89bc a607 b2bc 9f2b 2a3d
00000290: 07cb b73d 77b6 c4bd dc4d 613d 8dee 813d
000002a0: 1ae6 3a3d 3001 183d c165 ce3b 2e44 a2bb
000002b0: c7a4 883c 98f5 65ba b40c b0bd adea 36bd
000002c0: fdde 393d 225b 31bc aaa6 1f3d 3ec5 27bd
000002d0: 3c90 bfbc 774b a33b 843b 40bc d29f 46ba
000002e0: 6a02 1bbd 6210 603d a88a 203d fa93 983d
000002f0: 94e1 2e3d d68e 20bd e086 053d e767 d4bb
00000300: f8db 8b3d 2480 adbc 9d7a 0abd 383d 17bd
00000310: faaf e43c 857d 63be 8ec6 c4bc d502 163e
00000320: 968b 423d eff4 dc3c d6d2 1dbd 2d09 8abc
00000330: 1e8f b4bc e396 dabc 0844 53bd f4f8 883d
00000340: 7505 acbd fd08 f93c 4c9a c93c 6908 493b
00000350: 6aef 3c3d db16 e63a d418 e53c a637 2b3c
00000360: fab8 99bc bc96 f5bc 3d0b 2bbd da76 143d
00000370: 6ecf f23c 3c66 21bc ef71 ec3c 9122 07bd
00000380: 3916 f63c 72d3 a2bc 5fbf ca3c 9a5c b6bc
00000390: 5e9a 9a3a 9473 8bbc 4b20 4c3e 01c0 edbc
000003a0: c3a5 bf3d a3dd fbbc 773c bc3c 17bc 153d
000003b0: d21e 1f3b f19b 1abb ae07 bbb8 61dc 63bc
000003c0: 3f1b 88bc ad96 7fbd 17fe 203d aeab 68bd
000003d0: 47a3 3d3d 3a9c 143e 970f 49bd ac1b dcbc
000003e0: 1e6e f8bb fc9f 543b f35f debb 00d4 f63c
000003f0: f614 c03b 356d 94bc 9d87 353c dabc 2a3d

fcs1.bias f4 [400]
0.16281934 0.126317 0.06436436 0.1156713 0.059205394 0.11628441 0.14028879 -0.027363874
0.12539704 -0.05591208 0.15914284 0.10110403 -0.057746645 -0.1712379 0.087365866 -0.01021312
0.017540153 -0.08920059 -0.0922026 0.13756482 -0.099434555 0.11229285 0.15776403 -0.07001594
-0.0917657 -0.05463542 -0.025263997 -0.053288788 -0.091374636 -0.136223 -0.01683495 0.099880226
0.06371286 0.010191133 0.111434735 -0.0861515 -0.02687371 -0.14517583 0.08657269 -0.057296537
-0.1260714 -0.11748 0.13822176 -0.180797 -0.074743845 -0.12883879 -0.06733846 0.028977577
0.106105134 -0.16312495 -0.12221453 0.032440566 -0.062243916 -0.13006714 -0.16975455 0.097758286
0.018530186 0.08763594 -0.04168934 0.05492503 0.02113646 -0.03287277 -0.0387417 -0.03771735
-0.17366338 0.08965096 -0.16960363 -0.09540491 0.0055131717 0.14595525 -0.122877896 -0.039313234
-0.03771975 -0.1066388 0.007890139 -0.14594552 -0.020797286 -0.17471759 -0.107421674 -0.11815331
-0.17734988 0.029521435 -0.116269656 -0.0067816754 -0.11892028 -0.18553473 0.095847756 0.14127225
-0.13710548 -0.14810626 0.033890754 0.14161211 0.079233855 -0.09585576 -0.13091049 -0.039340667
0.07305306 -0.19288757 -0.0051151877 -0.16620362 -0.181792 0.09048763 0.008425461 0.16014878
-0.011245956 -0.039759308 0.04983755 0.07094172 -0.14657107 -0.1285277 0.10342846 0.026972195
0.11118846 -0.14874405 0.06249886 -0.098242156 -0.20355248 0.064299695 0.09112685 0.15292735
0.1543448 -0.15224212 0.07691751 0.11811991 -0.13672575 0.18674842 0.121854156 0.094609745
-0.16351244 0.09234565 0.018226333 0.018864458 0.02586395 -0.08255342 -0.120770365 -0.04928964
-0.196783 -0.20203204 -0.18659763 -0.1244919 -0.11179709 0.12057898 -0.21716858 0.15245496
-0.04430573 -0.1696632 0.09825384 0.11384074 -0.13723312 0.15809117 -0.1172231 0.049308427
0.01501154 -0.03811918 -0.20841214 0.12631811 -0.13922766 -0.086307645 -0.034026776 7.592954e-05
0.13967125 -0.0047619883 -0.045104425 -0.17656814 0.16773264 -0.19187085 -0.118134715 -0.070000924
-0.17176281 0.028624743 0.062456306 0.055120256 -0.00062729965 -0.22660053 0.027435303 -0.1661424
-0.10966676 0.04916628 0.0014761782 0.046530955 -0.07989277 -0.12808546 -0.010834205 0.06333945
-0.020873377 -0.15804279 0.012532907 0.014774189 -0.10757251 -0.0378141 0.015065335 -0.084434696
-0.053519607 -0.11534873 -0.01377392 -0.09964686 -0.16796345 -0.11991655 0.06453015 0.01321522
-0.10871149 -0.0055602444 0.034036204 -0.0046571367 -0.030532993 -0.059913833 -0.14578778 -0.07800658
-0.056711238 -0.15986852 -0.0032591552 -0.15880738 -0.18882702 0.05224718 -0.031667817 -0.04615035
-0.0020022015 -0.07560793 -0.0863499 0.17119308 0.07318691 -0.15038699 0.05985796 -0.046422392
-0.059108198 0.052129753 0.13594645 -0.14124593 -0.11554147 -0.1645126 -0.14938523 -0.16493994
-0.11921749 0.016215388 0.05945561 0.10977239 0.113670565 -0.15992913 -0.001385281 -0.20584388
0.14061452 -0.046465497 0.031198688 -0.10850388 0.11583476 -0.14754061 0.025813479 -0.059876576
-0.038292125 -0.05203972 0.112358086 0.03681805 0.059363615 -0.090247646 -0.08218875 0.054683786
00000000: 1dba 263e 3e59 013e 76d1 833d 13e5 ec3d
00000010: 5b81 723d 8526 ee3d dda7 0f3e 342a e0bc
00000020: 1568 003e 1104 65bd 57f6 223e a10f cf3d
00000030: bf87 6cbd fd58 2fbe e0ec b23d ee54 27bc
00000040: 5eb0 8f3c cdae b6bd b7d4 bcbd cbdd 0c3e
00000050: 58a4 cbbd cbf9 e53d e58c 213e 8464 8fbd
00000060: a8ef bbbd 64c9 5fbd 71f6 cebc 5845 5abd
00000070: a022 bbbd 0b7e 0bbe 73e9 89bc 018e cc3d
00000080: e37b 823d b6f8 263c e537 e43d 3370 b0bd
00000090: 4126 dcbc f9a8 14be 064d b13d c6af 6abd
000000a0: dc18 01be 5b99 f0bd 018a 0d3e d922 39be
000000b0: 4d13 99bd 51ee 03be bfe8 89bd 6262 ed3c
000000c0: a64d d93d 3a0a 27be 9d4b fabd 66e0 043d
000000d0: 7af3 7ebd 5230 05be 23d4 2dbe 7f35 c83d
000000e0: 9ecc 973c 797a b33d 71c2 2abd 11f9 603d
000000f0: 5f26 ad3c 99a5 06bd 9eaf 1ebd 827d 1abd
00000100: d0d4 31be ec9a b73d 93ac 2dbe a663 c3bd
00000110: d6a7 b43b 4b75 153e 68a7 fbbd ea06 21bd
00000120: 0680 1abd 7165 dabd a445 013c be72 15be
00000130: 125f aabc 2be9 32be e5ff dbbd 5dfa f1bd
00000140: 359b 35be f0d6 f13c c91e eebd d138 debb
00000150: 7a8c f3bd d1fc 3dbe d44b c43d aca9 103e
00000160: 6165 0cbe 2ba9 17be 08d1 0a3d c402 113e
00000170: 5c45 a23d 0650 c4bd 660d 06be ae23 21bd
00000180: d89c 953d 5284 45be 4e9d a7bb 4831 2abe
00000190: af27 3abe 9451 b93d f20a 0a3c 0bfe 233e
000001a0: f540 38bc a8da 22bd 7522 4c3d e449 913d
000001b0: ba16 16be c49c 03be 4dd2 d33d cbf4 dc3c
000001c0: c6b6 e33d 5c50 18be cefe 7f3d 2f33 c9bd
000001d0: 1070 50be 8faf 833d b7a0 ba3d fd98 1c3e
000001e0: 900c 1e3e 5ce5 1bbe ed86 9d3d dae8 f13d
000001f0: d601 0cbe fa3a 3f3e ac8e f93d c1c2 c13d
00000200: ce6f 27be b71f bd3d 644f 953c a389 9a3c
00000210: a2e0 d33c c411 a9bd 7456 f7bd efe3 49bd
00000220: 7c81 49be 7de1 4ebe 7313 3fbe 9cf5 febd
00000230: dff5 e4bd 1df2 f63d 7161 5ebe 271d 1c3e
00000240: ed79 35bd 31bc 2dbe 4f39 c93d 5525 e93d
00000250: d786 0cbe a7e2 213e aa12 f0bd a2f7 493d
00000260: f6f2 753c db22 1cbd fe69 55be 8959 013e
00000270: b291 0ebe 10c2 b0bd a95f 0bbd 5d3c 9f38
00000280: fb05 0f3e 740a 9cbb 6bbf 38bd 47ce 34be
00000290: 1bc2 2b3e cb79 44be 9df0 f1bd a55c 8fbd
000002a0: 97e2 2fbe 707e ea3c 2fd2 7f3d c7c5 613d
000002b0: 5e71 24ba f809 68be 00c0 e03c 3c21 2abe
000002c0: f798 e0bd 9562 493d 527c c13a 3e97 3e3d
000002d0: d29e a3bd d628 03be f381 31bc 1db8 813d
000002e0: a5fe aabc f8d5 21be d256 4d3c 710f 723c
000002f0: fa4e dcbd f5e2 1abd 98d4 763c 19ec acbd
00000300: 6037 5bbd f43b ecbd 02ac 61bc a713 ccbd
00000310: 9cfe 2bbe cf96 f5bd 6228 843d a684 583c
00000320: 21a4 debd b632 b6bb 8c69 0b3d e59a 98bb
00000330: 5420 fabc 3568 75bd 6449 15be eac1 9fbd
00000340: 0b4a 68bd 93b4 23be 8d97 55bb 679e 22be
00000350: df5b 41be 2401 563d 1db6 01bd 2608 3dbd
00000360: 5e37 03bb 55d8 9abd 37d8 b0bd 3d4d 2f3e
00000370: 05e3 953d 0cff 19be 9f2d 753d 6825 3ebd
00000380: 701b 72bd 0286 553d 8c35 0b3e c6a2 10be
00000390: 02a1 ecbd fe75 28be 71f8 18be 04e6 28be
000003a0: 4d28 f4bd 22d6 843c ba87 733d 59d0 e03d
000003b0: 1dcc e83d 76c4 23be 5192 b5ba bdc8 52be
000003c0: 41fd 0f3e 9b52 3ebd 6494 ff3c 4837 debd
000003d0: c63a ed3d e314 17be ca76 d33c 2441 75bd
000003e0: 34d8 1cbd 9a27 55bd ff1b e63d 86ce 163d
000003f0: 4327 733d c2d3 b8bd 9352 a8bd 1bfc 5f3d

fc2.weight f4 [300, 404]
0.0025815936 -0.05503019 0.025694389 0.0012904165 0.041584663 -0.07178354 -0.06098002 -0.021250995
0.04064501 -0.061605897 -0.071064815 -0.056287855 -0.046911016 -0.04059585 0.015125612 -0.019414026
-0.03957312 0.06496419 0.07988138 0.069009796 -0.072923414 -0.04942212 0.03866967 0.0746768
-0.03505975 -0.123583324 -0.04415293 0.01510924 -0.18866399 -0.015165615 0.09624316 -0.03824854
-0.044916324 -0.00652593 0.074545845 0.011860816 0.047402304 -0.10925331 -0.07850537 -0.048872564
0.025055517 0.04494349 -0.053848196 -0.15878451 0.059759937 -0.0005032038 0.012480841 0.04180064
0.03748378 0.051872365 -0.036896657 -0.029935958 -0.11115724 0.02514886 0.018709486 -0.014128707
0.02098757 -0.014344178 0.006816217 -0.10833422 -0.09032586 0.029900447 0.01863171 -0.037409924
0.025858654 -0.017753318 -0.0033886102 -0.056464188 -0.03839895 0.033638343 0.032866776 0.073600374
0.03855708 0.06355524 0.061206833 -0.011472665 0.025343318 -0.022263166 -0.016205559 -0.14600857
-0.021953043 0.06812999 0.04905897 0.12719357 -0.044354703 0.07301766 -0.046336148 -0.13800097
0.066932134 0.035713457 0.04735603 -0.0065364377 -0.10873844 0.095631294 0.047198746 0.05638294
0.02388026 -0.018607134 0.012519897 -0.018097853 -0.040533263 0.05216708 -0.0067547597 -0.0458764
-0.014169471 -0.091221295 -0.043966122 -0.017234761 0.048978038 -0.09444012 -0.030641207 -0.05964384
0.012237265 -0.0010197464 -0.047252867 -0.07141929 -0.16259627 -0.0583316 -0.082314715 -0.0028476012
0.045051824 0.0722585 -0.025720008 -0.010863687 0.04973263 -0.05473362 0.01718965 -0.04001538
-0.09900063 -0.0037584563 0.028807247 0.054654196 -0.0113505805 -0.07279307 -0.0237246 0.044296216
-0.05498066 -0.055348787 -0.08984356 0.1225436 -0.07166833 -0.20463473 0.0724041 -0.025537606
0.039956022 -0.0061591477 0.06799623 -0.030948251 -0.07902927 0.086969905 0.0070433775 -0.012458074
0.1295723 -0.07964854 -0.06905864 -0.061897445 -0.03597539 0.030660475 -0.07361466 -0.053922236
-0.014487854 -0.19025946 0.041996602 0.079415366 -0.047595106 -0.07140095 -0.22251683 -0.15484753
-0.0049278024 -0.008991917 -0.06425668 -0.049892876 0.035300232 -0.10634174 -0.07829323 -0.047125574
-0.031880513 0.011890771 0.012643659 -0.038842708 0.05219695 -0.015390555 0.013346642 0.05246429
0.006826048 0.00830342 0.040326722 0.019940322 -0.021810047 -0.04859768 0.008205236 -0.05659836
-0.014834125 0.03308204 -0.029368334 -0.13324854 -0.028309995 -0.006128718 0.048353147 0.038715377
0.078578874 -0.023844503 0.028235218 -0.010014638 -0.05197068 -0.11581138 0.034649853 0.059624955
-0.009390258 -0.08427007 0.08232914 -4.9932765e-05 -0.14108954 -0.06999849 -0.1653153 0.004419691
-0.05638888 -0.022180902 -0.050309632 0.015104274 -0.02105974 -0.039557613 -0.05312679 -0.016680557
0.0051389867 -0.10806105 -0.03022961 0.008432853 0.026772646 -0.054052062 0.02641045 0.028984457
-0.055627864 -0.020247279 -0.080923475 0.04255683 0.13527402 0.033263 -0.095753975 0.025193918
0.042343568 0.006680481 0.01337608 0.1031293 -0.09758733 0.026749529 -0.08363804 0.00062420923
-0.14695175 0.06276112 -0.071323834 0.018950634 -0.021720273 0.069262095 -0.002395924 -0.077344604
00000000: f42f 293b 5667 61bd 0a7d d23c 3123 a93a
00000010: ae54 2a3d 4003 93bd 2fc6 79bd 9116 aebc
00000020: 627b 263d 7756 7cbd 6e8a 91bd 188e 66bd
00000030: c425 40bd d647 26bd 6ad1 773c 2a0a 9fbc
00000040: 6d17 22bd f20b 853d d998 a33d 0255 8d3d
00000050: df58 95bd d96e 4abd 1664 1e3d 26f0 983d
00000060: d09a 0fbd 4119 fdbd b4d9 34bd bf8c 773c
00000070: 2231 41be 3379 78bc 221b c53d 80aa 1cbd
00000080: 2efa 37bd 78d7 d5bb 7eab 983d de53 423c
00000090: eb28 423d 33c0 dfbd 6cc7 a0bd 992e 48bd
000000a0: 3a41 cd3c aa16 383d ed8f 5cbd 6898 22be
000000b0: d6c6 743d 6fe9 03ba 717c 4c3c 2637 2b3d
000000c0: 9888 193d 1e78 543d f320 17bd 413c f5bc
000000d0: 68a6 e3bd fb04 ce3c a344 993c 187c 67bc
000000e0: 20ee ab3c d803 6bbc 935a df3b 55de ddbd
000000f0: c4fc b8bd c8f1 f43c 87a1 983c 263b 19bd
00000100: 87d5 d33c 686f 91bc 7213 5ebb fe46 67bd
00000110: 3848 1dbd 5cc8 093d 509f 063d cbbb 963d
00000120: 07ee 1d3d 4029 823d 04b4 7a3d d8f7 3bbc
00000130: ca9c cf3c 3e61 b6bc 85c1 84bc 4583 15be
00000140: ded6 b3bc bc87 8b3d 0ff2 483d 083f 023e
00000150: 47ad 35bd 488a 953d f9ca 3dbd 2050 0dbe
00000160: b713 893d 4648 123d 66f8 413d 9d2f d6bb
00000170: 42b2 debd 57da c33d 7953 413d ccf1 663d
00000180: 89a0 c33c fd6d 98bc 4120 4d3c f341 94bc
00000190: 3506 26bd 26ad 553d 0857 ddbb e4e8 3bbd
000001a0: 1227 68bc 3bd2 babd d215 34bd ea2f 8dbc
000001b0: 329d 483d d269 c1bd 4503 fbbc 194d 74bd
000001c0: cf7e 483c 03a9 85ba 398c 41bd 4744 92bd
000001d0: a37f 26be 1eed 6ebd 9e94 a8bd d29e 3abb
000001e0: 4388 383d 44fc 933d c4b2 d2bc 9bfd 31bc
000001f0: 71b4 4b3d 5c30 60bd 4fd1 8c3c 2be7 23bd
00000200: d8c0 cabd 6f50 76bb 2dfd eb3c 14dd 5f3d
00000210: c9f7 39bc 8814 95bd 185a c2bc f36f 353d
00000220: 6733 61bd 69b5 62bd e6ff b7bd 24f8 fa3d
00000230: d8c6 92bd c48b 51be 9a48 943d 3e34 d1bc
00000240: eda8 233d add2 c9bb 9c41 8b3d 3087 fdbc
00000250: 19da a1bd 471d b23d 22cc e63b f31c 4cbc
00000260: 9aae 043e c61e a3bd 9e6e 8dbd 2d88 7dbd
00000270: ee5a 13bd ad2b fb3c 48c3 96bd 90dd 5cbd
00000280: 775e 6dbc 60d3 42be a104 2c3d 86a4 a23d
00000290: 16f3 42bd a93a 92bd 74db 63be 5a90 1ebe
000002a0: 6779 a1bb d552 13bc 0299 83bd 795c 4cbd
000002b0: fa96 103d b3c9 d9bd 3358 a0bd bf06 41bd
000002c0: 2495 02bd 82d1 423c 5927 4f3c 8819 1fbd
000002d0: 78cc 553d ab28 7cbc e0ab 5a3c cce4 563d
000002e0: 0aad df3b 110b 083c a22d 253d e359 a33c
000002f0: fcaa b2bc 5c0e 47bd 416f 063c afd3 67bd
00000300: d40a 73bc 0881 073d dc95 f0bc 4e72 08be
00000310: 5dea e7bc 6ad3 c8bb f30d 463d 0494 1e3d
00000320: f6ed a03d 8c55 c3bc 8b4d e73c 7014 24bc
00000330: 35df 54bd 842e edbd 01ed 0d3d 4c39 743d
00000340: 99d9 19bc c995 acbd 2e9c a83d e66e 51b8
00000350: c779 10be 5e5b 8fbd 6a48 29be 0ed3 903b
00000360: 07f8 66bd b9b4 b5bc 7911 4ebd eb77 773c
00000370: 7a85 acbc 2a07 22bd 7a9b 59bd aaa5 88bc
00000380: f264 a83b 1d4f ddbd 16a4 f7bc f329 0a3c
00000390: 4f52 db3c b265 5dbd ba5a d83c d070 ed3c
000003a0: 0bda 63bd 9fdd a5bc 35bb a5bd 1250 2e3d
000003b0: 4685 0a3e c93e 083d a91a c4bd 7a63 ce3c
000003c0: 7370 2d3d f0e7 da3b 5927 5b3c 7435 d33d
000003d0: dedb c7bd d421 db3c 6c4a abbd f9a1 233a
000003e0: 857a 16be e788 803d 3b12 92bd 5c3e 9b3c
000003f0: b7ee b1bc 49d9 8d3d ef04 1dbb d966 9ebd

fc2.bias f4 [300]
-0.0044175508 0.037757143 0.017161733 -0.0031954453 -0.03210216 -0.0061114617 0.04738182 0.0007048456
0.008747939 0.08178713 -0.03796011 0.093463875 0.014234566 0.07142617 -0.004850959 -0.01615163
0.070263945 -0.016576655 0.0066719092 0.0020206317 0.039677467 -0.03765897 -0.021984404 -0.012017108
0.08680595 0.020667125 -0.048390765 0.08083209 -0.0042581344 -0.065614395 -0.03950424 0.0052838246
-0.034154996 -0.06813292 -0.046061367 0.10852347 0.02092824 -0.07317665 -0.037013493 0.047566175
-0.019703394 0.0216204 0.06333109 -0.020202447 0.030078357 0.004123993 0.0101454025 -0.019108843
0.004880837 0.033360694 0.08602123 0.020907495 0.039392885 -0.027208982 0.0003603505 0.003154537
0.083833456 -0.036634553 0.057268426 0.04904481 -0.052934617 -0.010477995 0.0358984 0.052482344
0.0013302674 -0.032129478 -0.010410335 0.03322677 0.086538434 0.003329257 -0.050417576 0.043302186
-0.003504873 0.03519315 -0.028345224 0.00026632778 -0.0066609057 0.07478562 -0.052111115 -0.029909963
-0.048222322 -0.02317633 -0.006175944 -0.05206669 0.037515536 0.030432818 -0.03551735 0.028355248
-0.020997636 0.046128243 0.071671076 -0.06626468 0.00075082364 0.02760258 0.030346975 -0.05759176
0.009133817 -0.048016388 0.036695976 0.022943923 -0.02646491 -0.02305459 0.04031202 -0.040533468
0.03459648 0.048738983 0.076371536 -0.015058861 -0.0010673155 -0.025674392 0.0068875435 -0.033618294
-0.011731836 0.076197885 -0.03296819 0.032168444 -0.019622572 0.011878956 0.060116455 0.018891405
-0.06760206 -0.06360135 0.041112833 -0.06492969 0.068618365 0.0059877867 0.012703931 0.029657474
0.12160484 -0.048297808 -0.06890209 0.07024826 -0.02267571 0.011447231 -0.040049102 0.014197366
-0.04624531 0.0075429413 0.021892712 -0.0029044733 -0.07503792 -0.0048734252 0.04928053 -0.008878716
0.028895527 -0.032968655 -0.06339267 -0.016266668 -0.0146975685 0.115385234 -0.0090682 0.025861125
0.029444423 0.024156984 -0.05636913 -0.020438468 -0.049267273 -0.02303037 0.14738539 0.0058274404
0.019390058 0.004718306 -0.0126527315 -0.00068870763 -0.048052885 0.008327296 0.06122071 0.03123293
0.074690536 0.029725518 0.0017141833 -0.050614476 0.073636904 -0.04100056 -0.0014430163 0.030869264
-0.037812542 0.010096352 0.017752863 0.057094347 -0.0012229056 -0.0730055 0.034445267 0.07512018
0.012674628 0.006231224 -0.024716087 -0.059288647 -0.02932882 0.0066893254 0.045287866 0.03244822
0.045236226 0.12519956 0.060176004 0.054689847 -0.013574103 0.03691804 0.07697883 0.07976285
0.015455021 0.028032823 0.092497 0.0021532956 0.02227658 -0.003531822 0.081518404 -0.036282036
0.019247772 -0.0038874985 0.08698202 0.00055237714 -0.006396098 0.08611416 -0.042857144 -0.0058877897
0.011601654 0.03537246 0.05872827 -0.0502137 0.048489444 -0.066029 -0.0047086747 0.021816272
-0.021461472 -0.06879399 0.010860635 -0.015010443 -0.0468629 0.0024390672 0.019024124 0.08330907
-0.0589875 0.011586031 -0.053658362 0.06610576 0.02378351 -0.005249868 0.016464295 0.036580414
0.054017633 0.007939995 -0.032916702 -0.041015305 0.042777263 0.0658584 0.055909287 0.015994387
0.03670853 -0.039952584 -0.05153133 -0.018864172 -0.022650415 0.065299466 0.06542633 -0.0049405424
00000000: 1ac1 90bb 3ca7 1a3d c396 8c3c ad6a 51bb
00000010: 8e7d 03bd a842 c8bb 7013 423d 63c5 383a
00000020: 8453 0f3c 0380 a73d 0f7c 1bbd fd69 bf3d
00000030: 1938 693c e247 923d cbf4 9ebb 6c50 84bc
00000040: 8be6 8f3d c4cb 87bc 08a0 da3b 936c 043b
00000050: d784 223d 4b40 1abd a318 b4bc 67e3 44bc
00000060: 51c7 b13d 1a4e a93c 6535 46bd 4b8b a53d
00000070: d287 8bbb d760 86bd 33cf 21bd ef23 ad3b
00000080: 1ce6 0bbd 4689 8bbd d8aa 3cbd 8e41 de3d
00000090: b371 ab3c a4dd 95bd 769b 17bd c0d4 423d
000000a0: 0369 a1bc 441d b13c bbb3 813d 9a7f a5bc
000000b0: e366 f63c 9022 873b e738 263c 268a 9cbc
000000c0: 6eef 9f3b 39a5 083d e62b b03d 3246 ab3c
000000d0: 6f5a 213d 5fe5 debc 6ded bc39 59bc 4e3b
000000e0: e0b0 ab3d 1d0e 16bd 4c92 6a3d 36e3 483d
000000f0: f8d1 58bd e5ab 2bbc 330a 133d baf7 563d
00000100: 5e5c ae3a 339a 03bd 1c90 2abc cb18 083d
00000110: 103b b13d aa2f 5a3b a982 4ebd a25d 313d
00000120: 03b2 65bb b126 103d 3e34 e8bc e9a1 8b39
00000130: ba43 dabb 3429 993d 7772 55bd bd05 f5bc
00000140: c584 45bd 49dc bdbc 935f cabb e243 55bd
00000150: e4a9 193d 3f4e f93c a47a 11bd 4449 e83c
00000160: 3c03 acbc f8f0 3c3d 49c8 923d c7b5 87bd
00000170: ecd2 443a ce1e e23c 389a f83c 56e5 6bbd
00000180: 01a6 153c d5ac 44bd 854e 163d e5f4 bb3c
00000190: f0cc d8bc fbdc bcbc 371e 253d 6c06 26bd
000001a0: 0ab5 0d3d 87a2 473d ae68 9c3d 71b9 76bc
000001b0: 2ae5 8bba 1a53 d2bc e7b0 e13b 56b3 09bd
000001c0: e336 40bc a30d 9c3d a709 07bd 0fc3 033d
000001d0: 84bf a0bc f49f 423c ac3c 763d 26c2 9a3c
000001e0: f372 8abd 6d41 82bd ee65 283d dbf9 84bd
000001f0: c987 8c3d 3235 c43b 2624 503c 3bf4 f23c
00000200: f50b f93d ecd3 45bd 8a1c 8dbd 52de 8f3d
00000210: 69c2 b9bc 2b8d 3b3c 870a 24bd 129c 683c
00000220: b96b 3dbd c72a f73b 5858 b33c fa58 3ebb
00000230: 7bad 99bd 41b1 9fbb 62da 493d 0978 11bc
00000240: 50b6 ec3c 240a 07bd 04d4 81bd ad41 85bc
00000250: 12ce 70bc 184f ec3d ca92 14bc b6da d33c
00000260: 6e35 f13c dee4 c53c 51e3 66bd 936e a7bc
00000270: 7bcc 49bd 30aa bcbc 32ec 163e 1df4 be3b
00000280: e6d7 9e3c 059c 9a3b 674d 4fbc 638a 34ba
00000290: 1ad3 44bd 366f 083c 91c2 7a3d 34dc ff3c
000002a0: 5af7 983d ee82 f33c 72ae e03a 2051 4fbd
000002b0: f2ce 963d 34f0 27bd 9823 bdba 8ae1 fc3c
000002c0: 53e1 1abd 2b6b 253c 746e 913c c3db 693d
000002d0: e749 a0ba e883 95bd 7b16 0d3d 9cd8 993d
000002e0: 3ea9 4f3c 4c2f cc3b 6479 cabc a7d8 72bd
000002f0: fe42 f0bc 2132 db3b c57f 393d 6de8 043d
00000300: 9f49 393d 5034 003e 1d7b 763d 7602 603d
00000310: ea65 5ebc 5f37 173d 14a7 9d3d b55a a33d
00000320: 0e37 7d3c 17a5 e53c 116f bd3d 4e1e 0d3b
00000330: 607d b63c 2476 67bb 1ff3 a63d 799c 14bd
00000340: 81ad 9d3c 67c5 7ebb a123 b23d 67cd 103a
00000350: 5c96 d1bb 9f5c b03d f98a 2fbd 5cee c0bb
00000360: dd14 3e3c b6e2 103d 0e8d 703d e1ac 4dbd
00000370: de9c 463d 363a 87bd 3a4b 9abb 0ab8 b23c
00000380: f8cf afbc dde3 8cbd cef0 313c 5cee 75bc
00000390: 50f3 3fbd c2d8 1f3b 7bd8 9b3c f29d aa3d
000003a0: e09c 71bd 56d3 3d3c dfc8 5bbd 7562 873d
000003b0: a3d5 c23c 1607 acbb 21e0 863c 58d5 153d
000003c0: 9841 5d3d c116 023c aad3 06bd aaff 27bd
000003d0: 3637 2f3d c5e0 863d 2301 653d a906 833c
000003e0: af5b 163d 52a5 23bd 8412 53bd 0989 9abc
000003f0: 5d8d b9bc babb 853d 3dfe 853d 46e4 a1bb

fc3.weight f4 [1, 300]
-0.2516812 0.04789907 -0.0037879916 -0.19712292 -0.15759018 0.1195676 0.09582752 -0.27713475
0.042543918 0.15542659 -0.19068241 0.091503225 -0.18442482 0.06898322 0.084479764 -0.12525068
0.12017876 0.16595799 0.1316218 0.10896855 0.07095087 -0.2671733 -0.22931683 0.16029882
0.054007377 0.09553691 -0.112803094 0.08572279 0.06670662 -0.16388918 -0.10576191 -0.14258534
-0.21754137 -0.09487031 -0.111892514 0.10726133 0.07048134 -0.104731075 -0.118462384 0.15603657
-0.052415922 -0.20601657 0.09273078 -0.12488277 0.054961003 -0.11931044 0.1620787 0.17558758
0.09647051 0.105700485 0.07812642 -0.1465736 0.09531967 -0.16712426 0.053916525 -0.17092988
0.07614035 -0.18536884 0.06501497 0.064104676 -0.09555877 -0.109961696 -0.11994456 0.05418114
0.075063154 -0.2011555 -0.19247408 0.12948985 0.05760379 -0.09237037 -0.114913754 0.0811237
0.07378231 0.2581494 -0.12885737 0.14563829 -0.12422962 0.067880414 0.0018794663 -0.10691768
0.01721391 -0.10364442 0.11414389 -0.15296546 0.04978817 0.0655684 0.19196393 0.041722905
-0.22368316 0.0645921 0.12771367 -0.18373811 0.1320965 0.1522293 0.11011322 -0.20404477
-0.12407941 -0.190574 0.14817944 -0.26656824 -0.11414315 -0.07883189 0.072227776 -0.13152511
0.078157365 0.109012045 0.085279524 -0.122761846 0.114734404 -0.12163964 -0.14527297 -0.13756193
-0.18438387 0.07642836 -0.109608024 -0.24953881 -0.22334166 -0.06909522 0.089722544 -0.19822839
-0.10184124 -0.10192456 0.11478928 -0.17496528 0.09605469 0.09635619 0.040725473 0.0744756
0.06853815 -0.12859873 -0.1429229 0.08189105 -0.119001575 -0.10414653 -0.2779634 -0.14958553
-0.21777096 0.045340344 -0.16999848 0.10140041 -0.13890243 -0.13637614 0.069157965 -0.096004754
0.07262201 -0.030746575 -0.16625018 -0.13509223 -0.047044326 0.06704893 -0.07159462 -0.11525071
0.08365162 0.17311803 -0.13210084 0.06447237 -0.118686125 -0.13965157 0.07543504 0.17242274
0.08218072 0.15751629 -0.12938923 -0.101570696 -0.14685294 0.065815896 0.09477835 0.1068223
0.059299767 0.15478495 -0.067330256 -0.16790871 0.07694576 -0.14010419 -0.19884609 0.17673306
-0.10013917 -0.19600473 0.091982 0.12017501 0.09222433 -0.106107436 -0.096821055 0.0736241
0.13254867 -0.13079116 -0.11064206 -0.18599813 -0.21131873 0.09866277 0.09040974 0.13027647
0.043873545 0.048482355 0.08133397 0.06729313 -0.22822125 0.16218784 0.07003334 0.150531
-0.11898675 0.15870717 0.122013256 -0.14136462 0.10044709 -0.19396612 0.05178756 -0.16757064
-0.16666685 -0.19241188 0.053891335 -0.0051263985 -0.06697728 0.06767062 -0.08946849 0.12914293
-0.23862009 0.10644949 0.15987001 -0.173268 0.13841064 -0.12348944 0.116950646 0.058863077
-0.14924781 -0.17111093 0.08863797 0.14826463 -0.17162897 -0.25819746 0.07517649 0.11022039
-0.11092767 -0.12634513 -0.17740077 0.10054888 -0.118389994 -0.07741094 0.08301948 0.122856185
0.0931832 0.063365124 -0.123449214 -0.1015757 0.05629204 0.1038902 0.10002684 0.12134397
0.08331586 -0.12242381 -0.15492263 -0.12701657 0.12243777 0.07278286 0.11083165 0.08664817
00000000: 5cdc 80be d131 443d f43f 78bb 97da 49be
00000010: 525f 21be dcdf f43d 3841 c43d 9be4 8dbe
00000020: 8842 2e3d 2628 1f3e 4042 43be 0b66 bb3d
00000030: dcd9 3cbe 1347 8d3d ba03 ad3d b741 00be
00000040: 4820 f63d e4f0 293e ddc7 063e e72a df3d
00000050: b14e 913d f0ca 88be 08d2 6abe 6025 243e
00000060: d736 5d3d dba8 c33d 4f05 e7bd 6e8f af3d
00000070: 7b9d 883d 91d2 27be b399 d8bd e401 12be
00000080: 2ac3 5ebe 5d4b c2bd e727 e5bd d4ab db3d
00000090: 8558 903d 3f7d d6bd 689c f2bd 0dc8 1f3e
000000a0: 14b2 56bd 02f6 52be a3e9 bd3d 8ac2 ffbd
000000b0: ca1e 613d 0859 f4bd f5f7 253e 3bcd 333e
000000c0: 5592 c53d 7f79 d83d bf00 a03d 6417 16be
000000d0: f636 c33d 9f22 2bbe 93d7 5c3d 3e08 2fbe
000000e0: 79ef 9b3d 54d1 3dbe 9226 853d 5049 833d
000000f0: 51b4 c3bd 9933 e1bd 7ea5 f5bd 0bed 5d3d
00000100: b6ba 993d b5fb 4dbe ed17 45be fd98 043e
00000110: f4f1 6b3d ad2c bdbd e757 ebbd 2f24 a63d
00000120: 2e1b 973d 282c 843e 30f3 03be 3422 153e
00000130: 196c febd e304 8b3d 6d58 f63a a8f7 dabd
00000140: 3004 8d3c 8743 d4bd 46c4 e93d faa2 1cbe
00000150: aeee 4b3d ba48 863d 3192 443e a3e5 2a3d
00000160: 330d 65be dd48 843d 5fc7 023e d825 3cbe
00000170: 4e44 073e ffe1 1b3e 0a83 e13d 1df1 50be
00000180: 591d febd d525 43be 5abc 173e a27b 88be
00000190: e2c3 e9bd 9d72 a1bd 28ec 933d 85ae 06be
000001a0: f810 a03d b541 df3d 08a7 ae3d 906a fbbd
000001b0: dff9 ea3d 341e f9bd 70c2 14be 09dd 0cbe
000001c0: 20cf 3cbe 7986 9c3d 2c7a e0bd 1a87 7fbe
000001d0: adb3 64be cb81 8dbd 74c0 b73d 62fc 4abe
000001e0: 2492 d0bd d3bd d0bd a416 eb3d 192a 33be
000001f0: 52b8 c43d 6556 c53d c1cf 263d aa86 983d
00000200: bb5d 8c3d 63af 03be 615a 12be 7fb6 a73d
00000210: 19b7 f3bd c74a d5bd 3851 8ebe f32c 19be
00000220: 5aff 5ebe ccb6 393d 1514 2ebe 05ab cf3d
00000230: 703c 0ebe 30a6 0bbe b1a2 8d3d 249e c4bd
00000240: d9ba 943d 3ee0 fbbc 7d3d 2abe 9e55 0abe
00000250: 8db1 40bd f350 893d 33a0 92bd 9008 ecbd
00000260: 8a51 ab3d da45 313e 7145 07be 170a 843d
00000270: b611 f3bd d200 0fbe b07d 9a3d 968f 303e
00000280: 5e4e a83d f34b 213e 9c7e 04be 4c04 d0bd
00000290: 9e60 16be 7cca 863d 271b c23d a6c5 da3d
000002a0: 50e4 723d f27f 1e3e 72e4 89bd 43f0 2bbe
000002b0: bd95 9d3d 7977 0fbe 4f9e 4bbe 83f9 343e
000002c0: c415 cdbd 77b5 48be 0f61 bc3d 511e f63d
000002d0: 1ce0 bc3d db4e d9bd 1e4a c6bd 3bc8 963d
000002e0: d7ba 073e 1eee 05be 4e98 e2bd 4b76 3ebe
000002f0: f063 58be b50f ca3d be28 b93d 3267 053e
00000300: bfb4 333d 6f95 463d 6d92 a63d fbd0 893d
00000310: d5b2 69be 9214 263e a46d 8f3d cc24 1a3e
00000320: 53af f3bd 2284 223e 16e2 f93d e3c1 10be
00000330: 34b7 cd3d 0e9f 46be 311f 543d a397 2bbe
00000340: b7aa 2abe 9f07 45be 29bd 5c3d 59fb a7bb
00000350: 622b 89bd e596 8a3d 413b b7bd 0b3e 043e
00000360: d358 74be 3102 da3d f7b4 233e 2b6d 31be
00000370: 85bb 0d3e 08e8 fcbd d283 ef3d 691a 713d
00000380: 6bd4 18be b437 2fbe d387 b53d afd2 173e
00000390: 81bf 2fbe 7532 84be 22f6 993d 3abb e13d
000003a0: 0c2e e3bd 9e60 01be 8ca8 35be 92ec cd3d
000003b0: 7476 f2bd a089 9ebd 1e06 aa3d 069c fb3d
000003c0: d5d6 be3d 93c5 813d f1d2 fcbd ec06 d0bd
000003d0: 7b92 663d 63c4 d43d dfda cc3d 3083 f83d
000003e0: 81a1 aa3d 56b9 fabd 0aa4 1ebe a210 02be
000003f0: a7c0 fa3d 2e0f 953d b4fb e23d 9974 b13d
